model/hesai90_pfe.onnx (onnx, 4344 bytes, 5 tensors)

pfn_layers.0.norm.weight f4 [64]
000000 16 71 49 3f 7c c7 f5 3b 26 30 98 3e c7 46 ab b8
       0.7868818 0.007500587 0.29724234 -8.167099e-05
000010 9f 63 49 3f 14 3d 6e 3a f8 bb 76 3a e3 40 2f 39
       0.78667635 0.0009088081 0.0009412165 0.00016713473
000020 2c cf 2a 3f c0 93 55 37 ad 4a 07 3e ce 1d 0f 3c
       0.6672237 1.273019e-05 0.1321208 0.008735133
000030 21 28 55 3e 2b 51 89 3f ad 1c 21 3e 8e f4 85 3e
       0.20816089 1.0727895 0.15733595 0.26163143
000040 ed 1e d7 3e 64 c0 e7 39 ab 2d 2a 3f 6f a4 2a 39
       0.42015782 0.00044203096 0.66475934 0.0001627372
000050 e5 a5 30 3c 66 e6 bc 3e 5c 2e 0b 3e f7 0f a8 38
       0.01078174 0.3689453 0.13591903 8.013838e-05
000060 2e cf 8e 3a 31 6e 88 3a ec b1 c3 bb 5a 08 90 3e
       0.0010895485 0.0010408816 -0.0059721377 0.28131372
000070 28 5d 1b 39 65 42 d8 36 25 82 30 3f 36 09 c1 3e
       0.00014816655 6.445031e-06 0.68948585 0.3770234
000080 6b 9e 26 3f eb 86 93 3e ad 7c 10 ba cf 79 a8 3e
       0.65085477 0.28813872 -0.0005511742 0.32905433
000090 6c cd de 38 2e f9 e4 3d 62 dd b8 b9 cf 5a 07 3f
       0.00010624048 0.1118034 -0.00035260158 0.5287294
0000a0 e9 74 fc 3e 94 bc 59 3f 66 2f 56 3e 07 38 94 3e
       0.49307945 0.8505337 0.20916519 0.28948995
0000b0 2a a8 a7 3e ba 11 ea 37 83 0b 13 3e 51 b2 36 ba
       0.32745486 2.7903228e-05 0.1435986 -0.000696932
0000c0 2b c5 90 3e c3 4d d9 3e 29 0b bf b7 e1 22 29 3e
       0.28275427 0.4244214 -2.2774171e-05 0.16517211
0000d0 ab bd 4c 3f d9 23 5d 3f bc d4 ce ba 66 6c de 3b
       0.7997691 0.86382824 -0.0015779953 0.0067878244
0000e0 03 da 94 3c a1 9b e7 3e 73 dd 0c 3e d0 f7 a4 3b
       0.018170362 0.45235923 0.13756351 0.0050344244
0000f0 1b 65 05 3e cb 20 34 3e a5 41 31 3b 05 c3 93 3e
       0.1302685 0.17590635 0.0027047184 0.28859726

pfn_layers.0.norm.bias f4 [64]
000000 4c 60 bd be d2 cc b6 bb 7e c8 ba bf 95 3e 1d bb
       -0.3698753 -0.0055786157 -1.4592435 -0.00239936
000010 83 b6 98 3e 57 7c 35 bc e9 d4 27 bc c4 56 23 bb
       0.29826745 -0.011077008 -0.010243633 -0.0024923543
000020 cf bb a3 be d3 3b c7 ba 5b 18 f7 bc 1c ae d8 bd
       -0.31979224 -0.0015200324 -0.03016298 -0.10580084
000030 52 45 94 be 8b 87 a0 bf 5a 59 80 bc d3 d8 b9 bf
       -0.28959137 -1.2541364 -0.015667606 -1.4519295
000040 0a 1d 68 3d 6c 91 12 bc 00 8e 5d bb b9 25 64 bb
       0.05666832 -0.008945804 -0.0033806562 -0.0034812524
000050 e4 57 52 bc 97 f9 e4 bc 65 1d ab bb 97 22 a1 bb
       -0.012838338 -0.027951045 -0.00522201 -0.0049174535
000060 16 26 a9 bb c7 ca 56 ba cb 0f f8 bc 65 5b 32 3d
       -0.005162011 -0.00081936683 -0.030280968 0.043544192
000070 62 c8 e4 ba 36 cf c8 bb a4 56 86 bf bc a7 62 bd
       -0.0017454738 -0.006128217 -1.0495191 -0.055335745
000080 95 93 c1 3d 23 3f 5a 3d 7e 36 d3 ba 0d b3 d9 bf
       0.09451977 0.053282868 -0.0016114262 -1.7007767
000090 d0 b2 a8 ba b2 43 2f bc 07 58 e1 b9 db c2 7e be
       -0.0012870673 -0.010697292 -0.0004298093 -0.24879019
0000a0 84 25 4c bf 91 db 31 be b9 21 86 bf ef 9a 49 3d
       -0.79744744 -0.17368914 -1.0479041 0.04922002
0000b0 59 c5 94 bf fd 73 9d ba 9c 00 e1 bc 63 88 02 bc
       -1.1622726 -0.0012012717 -0.02746611 -0.007967087
0000c0 00 fe 67 bf 19 49 6a be 0a dc 21 ba 09 42 fe bc
       -0.9062195 -0.22879447 -0.0006174451 -0.031037347
0000d0 d9 39 c3 be aa 4c be be b0 01 e5 bd 2e f2 70 bc
       -0.38130072 -0.37167865 -0.111819625 -0.014706178
0000e0 b9 cc 99 3f 32 10 5b be 43 b8 92 bc 1e b4 3b bd
       1.2015601 -0.21392897 -0.017910128 -0.04582607
0000f0 bb 77 09 be 6c 2c 0f bd 12 3e 80 bb 87 af 4f 3d
       -0.1342458 -0.034954473 -0.0039136494 0.050704505

pfn_layers.0.norm.running_mean f4 [64]
000000 79 6e 59 c1 29 22 a2 bf bf c1 a5 42 dd 13 8c bd
       -13.589471 -1.2666675 82.87841 -0.06839726
000010 2b 03 01 c1 b3 ac 1c bc 7b 0e 1b 3e 34 f0 05 3e
       -8.063273 -0.009562659 0.15142243 0.13079911
000020 9a ea 48 c1 02 dc c2 3d 1c 79 53 c0 2e d5 74 40
       -12.557276 0.095146194 -3.304267 3.8255115
000030 90 d1 54 41 58 96 3d c0 ff 53 d7 bf 94 f5 92 40
       13.301163 -2.9623013 -1.6822509 4.592478
000040 b3 44 c8 c0 d9 f5 de 3c b5 c6 3e bd d5 41 31 3d
       -6.258386 0.027216839 -0.04657622 0.043275673
000050 b1 bb 02 bf cd c4 bb be 7a f6 38 3f 2e 8a 2f 3f
       -0.51067644 -0.36673585 0.72251093 0.6857022
000060 7e 42 00 be 73 a0 dd bd c8 e6 10 3f c1 f2 f6 3d
       -0.12525365 -0.10821619 0.56602144 0.120580204
000070 4c 57 8d 3d 48 8c 19 3d 4a 98 81 40 c0 6c c8 be
       0.06901416 0.0374873 4.04984 -0.3914547
000080 ee f9 a3 40 d6 dc 12 3e 72 a5 48 3e 1b b5 a7 40
       5.124259 0.14342055 0.19594362 5.2408576
000090 93 61 91 3d ef 5a e5 bf 49 62 14 3e 8a 4a 46 c1
       0.07098689 -1.7918376 0.14490618 -12.393198
0000a0 76 a0 17 42 f0 a1 05 c0 76 ff 97 3f c4 b1 fc 3d
       37.9067 -2.0880089 1.1874835 0.123385936
0000b0 2e 9a 04 40 d6 e2 f1 3c ec 63 3f c0 0e 93 3c be
       2.0719104 0.02952711 -2.9904737 -0.18415472
0000c0 b3 38 15 42 d0 21 3e c1 84 ee 3d 3d de d7 ff bf
       37.30537 -11.883255 0.046370044 -1.9987752
0000d0 4e a9 56 c1 c0 69 5b c1 c3 b1 57 c0 e4 b2 ff be
       -13.416334 -13.713318 -3.3702247 -0.4994117
0000e0 d2 d1 46 42 9c 6e 33 c1 cd dd c5 3f ce bc ba 3f
       49.704903 -11.214504 1.5458313 1.4588869
0000f0 a6 2b 56 40 bf 7e 0b c0 f8 7c cd bd 0b 70 03 3e
       3.346414 -2.179611 -0.100336015 0.1283571

pfn_layers.0.norm.running_var f4 [64]
000000 7b 81 8a 44 6c 20 13 41 38 d4 1c 47 b4 ed fc 3c
       1108.0463 9.1954155 40148.22 0.030875064
000010 a6 ed b4 43 c1 a1 ce 3a 62 67 10 3e 87 f7 cc 3d
       361.85663 0.0015764759 0.14101937 0.100081496
000020 bc 1e 6d 44 ba 62 5b 3d 0b 1d 15 43 74 41 ad 42
       948.4802 0.05356095 149.11345 86.62784
000030 3a 43 83 44 ad 89 91 42 92 43 b9 43 68 a4 0b 43
       1050.1008 72.7689 370.5279 139.64221
000040 35 71 57 43 5b ea 87 3b 34 9e 37 42 17 2c b1 3c
       215.44221 0.0041478104 45.904495 0.021627469
000050 ea 53 c3 3f 7e 87 a1 40 d5 17 de 43 66 a9 2f 40
       1.5259984 5.0477896 444.1862 2.7447143
000060 54 5d e2 3d 40 85 88 3d 36 8e ec 3f 6e 1f 60 3f
       0.11052957 0.066660404 1.8480899 0.8754796
000070 db 11 e6 3c 64 46 35 3c e1 db f3 42 30 8f 59 41
       0.028084686 0.011064146 121.92945 13.597458
000080 73 fd 52 43 ac 06 66 3f 43 40 70 3e b4 db 1c 43
       210.99004 0.8985393 0.23462014 156.85822
000090 18 30 f3 3c d9 02 39 43 76 82 06 3e 08 bf 65 44
       0.029686019 185.01112 0.13135704 918.98486
0000a0 f3 93 04 46 7a 37 3c 42 1d 98 ff 41 5f e1 5e 3f
       8484.987 47.054176 31.949274 0.8706264
0000b0 22 70 d3 41 6e d1 b9 3b 08 96 44 43 e0 0c 43 3e
       26.429752 0.005670718 196.58606 0.1904788
0000c0 43 bc fe 45 31 9b 52 44 75 b9 59 3c d1 1c 82 42
       8151.5327 842.42487 0.013288845 65.05628
0000d0 e7 f9 87 44 13 8e 8e 44 b1 69 82 42 07 e5 b7 3f
       1087.8094 1140.4398 65.20643 1.4366769
0000e0 8e 25 61 46 7a 32 39 44 15 d8 c0 43 3b 30 49 41
       14409.389 740.7887 385.68814 12.574275
0000f0 ca 89 2b 43 e9 26 92 42 bc 1a 71 3d 82 76 68 3f
       171.53824 73.076 0.058863387 0.9080583

15 f4 [10, 64]
000000 06 90 9d bc 6b b3 ea 3a d4 43 4d 3d c9 6e 0f bb
       -0.019233715 0.0017906254 0.050113514 -0.0021886101
000010 0c 13 d3 bb be c2 49 3a 4f 1c 3e bb 75 e7 ce b9
       -0.0064414795 0.00076965604 -0.0029008572 -0.0003946383
000020 b8 c6 f6 be bf da 94 38 6f 46 2d 3f e2 28 5c 3d
       -0.48198485 7.0979346e-05 0.676856 0.053749926
000030 24 3f fc 3e 58 87 12 bb ec f4 ea 3f 42 d9 a0 3c
       0.49266922 -0.0022358503 1.8355994 0.019634847
000040 ab 2c 98 bc 93 e5 35 b9 3e 9e 5a ba a3 0b c3 3b
       -0.018575987 -0.00017347028 -0.000833962 0.005952315
000050 ab 04 77 bb db dd a4 3a 7c de 24 3e 6c 0a b1 3a
       -0.0037691991 0.0012578325 0.16100496 0.0013507134
000060 47 c7 db 3b 6f 8c 93 38 e3 d6 f7 bb ca 81 bf 3a
       0.0067071053 7.035664e-05 -0.0075634583 0.0014610824
000070 59 a5 72 b9 7b d8 a3 bb 9c e2 65 3b 15 1f ec ba
       -0.00023140515 -0.0050001717 0.0035077697 -0.0018014634
000080 5a 7e 1e 3b bf 37 3a 39 61 8e 0e ba 3f 0f 33 bb
       0.0024184198 0.0001775911 -0.0005438086 -0.002732232
000090 29 6c 90 38 3d a7 89 bf 5c b1 cf b9 7c 2d d8 be
       6.8866015e-05 -1.0754162 -0.0003961426 -0.42222202
0000a0 59 f8 74 be 03 e9 55 ba 10 3d 42 bc c3 3e f2 39
       -0.23922862 -0.00081600266 -0.011855379 0.00046204598
0000b0 89 d8 be b9 36 45 6f 3a ee c7 83 bf 83 ad a1 39
       -0.00036400955 0.00091274397 -1.0295389 0.0003083759
0000c0 49 99 44 3c 79 f5 b0 3e 56 4f b5 b9 8e 39 9e bd
       0.011999437 0.3456228 -0.0003458212 -0.077258214
0000d0 f1 75 26 39 4f c4 c0 3e bb d2 2f bd 9c 5b 83 3b
       0.0001587493 0.37649772 -0.042925578 0.0040087234
0000e0 15 f3 f8 3c 8c 8c e5 3e b6 14 7f 3d 8e 31 43 3b
       0.030389348 0.4483379 0.06227561 0.0029784176
0000f0 6f 09 84 bf 00 48 b1 3d 3a 00 2f ba ee d4 79 b9
       -1.0315379 0.08656311 -0.0006675754 -0.00023825813
000100 17 c0 db 3e 59 d9 91 ba 41 df f2 3c 4b db 42 3b
       0.4291999 -0.0011127397 0.029647471 0.002973276
000110 21 90 78 3c 4d 84 d1 3a b8 32 0d 3b 13 c5 55 ba
       0.015171082 0.0015984863 0.0021545123 -0.00081546715
000120 6f d7 42 3e b9 d1 70 3a 23 87 e6 3e 44 f3 22 3e
       0.19027494 0.00091865245 0.45024976 0.15913111
000130 38 9c ab bc 3a 12 cc ba 87 dd 53 be 71 26 f7 3a
       -0.020948514 -0.0015569397 -0.20689975 0.0018856061
000140 6b 1e b7 bb 60 44 c1 b6 10 72 4c 39 66 41 09 3c
       -0.005588343 -5.759808e-06 0.00019497448 0.008377409
000150 15 81 7f 3b 19 bb d5 39 fc 95 06 40 a1 4d 1a 3a
       0.003898685 0.00040765924 2.1029043 0.00058862014
000160 8b 37 f6 3b f7 76 0d 39 02 a3 f9 39 7a 4e 3a 3a
       0.0075139455 0.00013491126 0.0004761443 0.0007107031
000170 61 34 ce ba 4b e0 e5 3a e9 3a ca ba 97 bf a4 bb
       -0.0015732163 0.0017538158 -0.0015428934 -0.005027722
000180 8e 5e ac ba fe 40 3d b9 a2 a3 03 3a 12 43 28 3b
       -0.0013150738 -0.00018048656 0.00050216366 0.0025674743
000190 de 4a 61 ba f9 05 2a 3f 09 5a 27 ba b6 80 a5 be
       -0.0008594225 0.66415364 -0.0006383961 -0.3232476
0001a0 57 99 a7 3d c4 12 06 3a bb b2 38 bb e8 d4 6d b7
       0.08183544 0.00051144906 -0.0028182704 -1.4175872e-05
0001b0 36 7a 38 bb 6b c9 e0 39 6f f8 04 bf 40 7b aa 3a
       -0.0028149015 0.00042874677 -0.5194158 0.0013006702
0001c0 7e 46 be 3a 38 bd da 3e 95 89 8d 3a 4d 15 cd 3e
       0.0014516858 0.42722487 0.0010798449 0.40055314
0001d0 bc 26 d8 be 7a dc 1e 3c 13 d0 2e 3c 94 49 7d bc
       -0.42217052 0.00969612 0.010669726 -0.015459437
0001e0 c8 1c 74 3d 59 53 88 be 90 f8 f7 bf 25 9c c6 39
       0.05959776 -0.2662609 -1.937273 0.0003788184
0001f0 8c be 84 bd 59 ee e8 be c9 cb ea 3a f6 b1 30 ba
       -0.064816564 -0.45494345 0.0017913516 -0.00067403854
000200 51 cb 15 bf a1 74 c7 3d 64 84 aa 3e 10 53 9c bc
       -0.5851336 0.09739042 0.3330413 -0.019082576
000210 41 c2 e1 3f 66 c6 96 bc 00 92 b3 3c 08 cb d3 3a
       1.7637407 -0.01840515 0.021920204 0.001615853
000220 7d a2 23 3c b0 e0 af 3b 57 f0 1b c0 82 07 a4 be
       0.009987471 0.005367361 -2.4365442 -0.32036978
000230 24 39 fc be 12 55 c4 40 f4 22 0b bf 76 00 da 3f
       -0.49262345 6.1353846 -0.5435021 1.7031391
000240 33 99 e7 3f 58 85 7d bb 99 08 90 3c 50 e9 dc b9
       1.8093628 -0.0038684215 0.017582225 -0.000421355
000250 fa d6 a7 b9 d2 a8 ad 3f 64 96 fb 3f d1 fa b2 ba
       -0.00032012892 1.3567145 1.965527 -0.0013655071
000260 0d 99 1f bd 1e 64 55 3c 37 91 13 bd 1f 30 f8 bc
       -0.03896432 0.013024358 -0.03602716 -0.030296383
000270 a0 aa b2 b9 af 96 89 38 d7 63 03 c1 14 15 4a c0
       -0.0003407793 6.560736e-05 -8.211875 -3.1575365
000280 7c 0c 34 c1 e9 92 10 bd 08 13 05 3d 22 3e 9d bf
       -11.253048 -0.035296354 0.032488853 -1.2284586
000290 34 0b 9d 3a 2c 2c 5f bf 3c c7 0b 3d c1 d7 d8 3e
       0.0011981488 -0.87176776 0.03412555 0.42352107
0002a0 b2 33 c6 3f a3 be ae 40 bf 4d 73 40 41 5e d3 bc
       1.5484526 5.460771 3.8016202 -0.02580178
0002b0 2c c5 f8 bf dc cc 22 3c c5 66 a9 bf 76 4e 08 3d
       -1.9435172 0.009936538 -1.3234488 0.03327795
0002c0 cb 6b 01 3f 14 5c 39 3f 4e 83 03 3c 78 95 5e c0
       0.50555104 0.72406125 0.008026911 -3.4778728
0002d0 06 53 6a bf c0 57 a8 bf 29 69 93 3e b3 8b 8e 3d
       -0.91532934 -1.3151779 0.28791168 0.06960239
0002e0 9f 46 a0 be 14 ec b8 3f 39 71 97 3f 9d fb 85 3d
       -0.3130388 1.4447045 1.1831428 0.06542132
0002f0 03 58 b9 bf ae 9e 55 c0 1d 81 22 3b 79 a1 ea bc
       -1.4479984 -3.33781 0.0024796196 -0.02864145
000300 7b 36 60 bf a4 b5 9e bd 55 2f a8 40 c7 01 9e bb
       -0.8758313 -0.07749489 5.255778 -0.004821989
000310 77 7a ec be 69 8c 94 ba aa a5 27 3c 6a f7 07 3c
       -0.46187183 -0.0011333349 0.0102323685 0.008298734
000320 07 4c 4b bf d4 31 c9 3b 21 66 8d be 1a 22 6f 3e
       -0.79412884 0.006139973 -0.2761698 0.23352852
000330 2f fd 53 3f 3e 57 98 bc ae f5 fb bd 53 d9 ac 3e
       0.828082 -0.018596288 -0.12302719 0.33759555
000340 23 54 b1 be 5c 52 ce 3a aa a2 21 bb e0 46 34 3b
       -0.34634504 0.0015741098 -0.0024663606 0.0027508065
000350 49 55 04 bd 0b 33 67 3c 41 64 d1 3d a6 a9 31 3d
       -0.032307897 0.014111291 0.102242 0.04337468
000360 64 5a 13 bc 8e f1 d5 bb 05 b4 0e 3d c8 db df 3b
       -0.008993719 -0.0065290397 0.03483965 0.00683162
000370 2d 6b 8f 3b 59 f3 1a 3b 34 5c f8 3c e8 cc e4 bd
       0.00437679 0.0023643582 0.030317403 -0.11171895
000380 bb 74 6f 3c 68 a3 04 3c bf ae 59 3c df 8e 98 3e
       0.014615233 0.0080956 0.013286292 0.29796502
000390 0e d2 94 3b ce 1c 0b be dd b1 25 3c 51 e0 45 bf
       0.004541642 -0.13585207 0.010113207 -0.77295405
0003a0 a1 53 1c 40 d6 ae 94 3c 76 25 38 3e 27 31 e7 3b
       2.4426043 0.018149775 0.1798304 0.00705542
0003b0 36 01 9f 3d c2 55 0a 3b ff 12 67 be 80 02 30 bc
       0.07763903 0.0021108245 -0.2256584 -0.010742784
0003c0 c1 08 18 40 60 67 3b bf 59 b0 4e 3b 19 0f 63 be
       2.3755343 -0.7320461 0.0031538217 -0.22173728
0003d0 22 03 60 bf 85 90 67 bf 19 48 52 be 44 a9 f3 bc
       -0.8750478 -0.90454894 -0.20535316 -0.029743798
0003e0 40 d5 48 40 35 b7 2b bf 30 2e 03 3e 52 eb c0 3d
       3.1380157 -0.67076427 0.12810588 0.09419884
0003f0 b9 c7 30 3e df 03 6c be 3e 0e ce bb 54 7f f0 3b
       0.17263688 -0.23048352 -0.006288319 0.0073393974
