model/hesai40_mb-bp_pfe.onnx (onnx, 4344 bytes, 5 tensors)

pfn_layers.0.norm.weight f4 [64]
00000000: 7af3 d43d e9a1 a539 2c79 8e3d 3e0d 8f3b
00000010: c769 d53e 1980 ed37 fd5b f6be c530 ecb8
00000020: fb5e ff3d 9fef d434 8562 ec3d e73a 50ba
00000030: 553f 4cba f680 a23e 8801 1e3d dfd2 b73a
00000040: fc40 5f3e 9744 6737 794e 113e 09aa e9b9
00000050: 72f3 5139 263a 1b3e 2f17 1e3d 4d81 2736
00000060: 43c8 b13d 70e8 afbd 934d 43b9 e4a4 893d
00000070: 8d63 7db9 78ca 5734 f94e 9d3e 5f84 f63d
00000080: ea82 8a3e 94e6 9c3d 44dd bdb7 f24c f43d
00000090: e1d1 38ba 4179 123d 1ad1 debd ae73 8f3e
000000a0: ff44 033e b8ca d13e edc6 aa3d f4c6 9c3d
000000b0: ad51 013e f4a2 6935 79fa f13d 8b00 0038
000000c0: 7226 493d 3f6e a33e 6b8c 3eb5 4484 0c3e
000000d0: 50c6 a23e c258 9f3e b363 4eb8 334b 0139
000000e0: 4683 40bd 194a 903e 7134 1f3d 1876 b8bd
000000f0: 7000 143d 7683 fc3d 7fd1 0639 59a2 9a3d
0.10398002 0.00031591885 0.069567055 0.0043655923 0.41682264 2.8312252e-05 -0.48117056 -0.00011262441
0.12469288 3.9662424e-07 0.115422286 -0.00079433474 -0.00077914196 0.31739014 0.03857568 0.0014024636
0.21802133 1.3784643e-05 0.14190091 -0.0004456791 0.00020022484 0.151589 0.03859633 2.4960202e-06
0.08680775 -0.08589256 -0.00018625548 0.067209035 -0.00024165046 2.0097093e-07 0.30724314 0.120369665
0.27053005 0.07661167 -2.263359e-05 0.11928739 -0.00070503174 0.035760168 -0.10879727 0.28017944
0.12819289 0.40974975 0.08338723 0.07655135 0.12628813 8.703639e-07 0.11815352 3.0518084e-05
0.04910893 0.3192005 -7.098485e-07 0.1372233 0.31791925 0.31122404 -4.920708e-05 0.00012330413
-0.047000192 0.28181532 0.03886837 -0.090068996 0.03613323 0.12329762 0.00012857279 0.075504966

pfn_layers.0.norm.bias f4 [64]
00000000: 2da9 13bd c784 c4ba d17c 36be 7282 15bd
00000010: 8c72 1ebd 25ea b4b9 c8b1 71be 351b 02b9
00000020: 8c05 31bd 0cd5 46b8 bcb3 20bd a0c4 dbbb
00000030: 8c1f 9abb 4cf5 b7be bb8b ef3b 2ec0 3bbd
00000040: 2d0a 053d fb11 92b9 c675 163a b803 f2ba
00000050: fcc3 9dba 2e47 0fbc e68b 8fbb 08a9 20b9
00000060: 4a96 84bb 4fe6 a8be 1a22 77ba 7d74 803c
00000070: 4d63 9ab9 4d59 48b9 8e7d 20be 5a75 01bd
00000080: de11 d83d e988 913c d802 23bb 3365 abbe
00000090: 6315 afba 94b6 f13b 36d4 1dbd 8459 c8bd
000000a0: 944e 393d 56a6 01be e640 84be ba2c 833c
000000b0: 50d3 2ebe 2104 1db8 1342 2abd bc83 eab9
000000c0: cff4 23bc 3241 e8bd 6991 a1b7 edff e2bd
000000d0: 1eb9 e2bd 1cca efbe 9c6e 64bb f4e4 adba
000000e0: cc65 093f c67c ccbd acca 06bc 5a07 f03b
000000f0: 2d14 ae3b cd1c 31bd 6a26 cbbb 539f 7f3c
-0.03605001 -0.0014993184 -0.17821051 -0.036501355 -0.03868346 -0.00034506727 -0.23602974 -0.00012407902
-0.04321818 -4.7405294e-05 -0.039233908 -0.006706789 -0.0047034677 -0.35929334 0.0073103583 -0.045837574
0.032480408 -0.00027860687 0.00057395955 -0.0018464243 -0.0012036557 -0.008744998 -0.004380691 -0.00015321758
-0.004046236 -0.32988212 -0.0009427384 0.015680546 -0.00029447154 -0.00019106753 -0.15672895 -0.031606056
0.10550283 0.01776548 -0.0024873521 -0.33475646 -0.0013357814 0.0073765013 -0.03853246 -0.09782699
0.045240954 -0.12661108 -0.25830764 0.016012538 -0.17072797 -3.7435562e-05 -0.04156692 -0.00044730108
-0.010007097 -0.1134056 -1.9260407e-05 -0.1108397 -0.110704646 -0.46833885 -0.0034855967 -0.0013267086
0.53670955 -0.09984736 -0.008227032 0.007325095 0.0053124637 -0.043240357 -0.0061996477 0.015601951

pfn_layers.0.norm.running_mean f4 [64]
00000000: c4e4 2cbe 3be4 35bc e302 2740 f1cc 6dbe
00000010: 57aa e7bf e003 6939 09f4 893f f176 473e
00000020: f6f9 5ebf b96e 1d3a f0ff 3bbf 6d2a 1a3d
00000030: 6b70 1c3e 0167 65bf 5899 cdbb 8c96 b5bc
00000040: aa16 1abf a80f 8e39 2955 b8bb 593c 943c
00000050: 242d dcbb 92c8 e3bd 2916 2fbd d964 9d3b
00000060: 7396 cdbd 9c68 17bf 7a16 933b c0ea a93d
00000070: 5e31 553e 15ca 8b39 11b6 8540 95b3 ebbe
00000080: 7495 b440 2e51 8d3d f1fb b13b 873f 10be
00000090: 1a4d 173e 1135 6dbc 20c9 343e f022 87bf
000000a0: 24b8 d141 acaa 5dbf 07fe a9be 9746 693d
000000b0: a94f 7b3f 5c62 9c38 9c42 40bf 0119 81bd
000000c0: 19f2 0fbe 968c 9ebf 604e 5739 1078 173e
000000d0: aa88 86bf 9cc1 5840 5248 e4bc 0dd1 f6bb
000000e0: 8709 7f3f f2be 9dbf 9e7b 09bd b7b9 ac3d
000000f0: 56fc 513c 7c7e 51bf a0bd 45bc 7be7 773d
-0.16884142 -0.011101778 2.6095512 -0.2322271 -1.8098859 0.00022222055 1.0777599 0.19478966
-0.8710016 0.00060055737 -0.73437405 0.037638117 0.15277259 -0.89610296 -0.0062743835 -0.022166513
-0.6019083 0.00027096015 -0.0056253863 0.018095182 -0.0067192484 -0.1112224 -0.042745743 0.0048032817
-0.100384615 -0.59143996 0.0044887634 0.08296728 0.20819613 0.0002666271 4.178475 -0.46035448
5.643244 0.069002494 0.005431645 -0.14086734 0.14775506 -0.014477984 0.17654848 -1.0557537
26.214912 -0.8658855 -0.3320162 0.056952085 0.98168427 7.4569805e-05 -0.7510164 -0.06303597
-0.14057197 -1.2386653 0.00020533195 0.14791894 -1.0510457 3.386817 -0.027866516 -0.007532245
0.9962391 -1.2323897 -0.033565156 0.0843386 0.012816509 -0.81833625 -0.012069136 0.06052349

pfn_layers.0.norm.running_var f4 [64]
00000000: b1b8 803e f30d 653a 5c57 4b42 9eff ce3e
00000010: 6a84 b441 e56a 3b35 8c10 5841 db31 a03e
00000020: 3887 e940 f5e3 6736 2785 ad40 8c9e 273c
00000030: 5f1d 333e 1698 a640 cf66 2f40 d276 123c
00000040: 0960 f83f 5ff5 ef34 6643 a241 43c3 223b
00000050: f7a0 bb39 672b b73e 5aff c63f 5aba 4639
00000060: 2f93 e93d 10ad fc3f 2f34 1939 7754 0f3e
00000070: 4ee1 b73e 18fb f335 1695 d642 cac0 9f40
00000080: 4cf6 4243 d43e 053e 20aa 173a 2b9e 883e
00000090: 24b3 373e cd83 de3f 03ac 883e ce3d 2941
000000a0: a9f9 b045 a9d8 9d40 c7c9 a33f 4d5e e83d
000000b0: c0a6 aa40 adf8 c334 2272 ae40 7cf4 fd3c
000000c0: d6c2 d33e cb09 6641 0eae 5535 4f09 183f
000000d0: 10ff 2741 97af 8e42 187a b03b b731 ca39
000000e0: dd2b c840 77a1 6341 14a1 a23f 4659 193f
000000f0: b238 6e40 feba d340 5005 dd3a 9939 e83d
0.25140908 0.00087377353 50.83531 0.40429395 22.564655 6.981848e-07 13.50404 0.31288037
7.297756 3.455437e-06 5.422504 0.010230672 0.17491673 5.206065 2.74065 0.008939462
1.9404308 4.469575e-07 20.28291 0.0024835623 0.00035787348 0.357753 1.5546677 0.00018952173
0.11405026 1.9740314 0.00014610657 0.13997065 0.3591408 1.8177989e-06 107.29118 4.992284
194.9621 0.13012248 0.00057855435 0.26683173 0.1793943 1.7383972 0.26693735 10.577589
5663.2075 4.932698 1.2795953 0.113461114 5.332855 3.6502516e-07 5.451432 0.031000368
0.41359586 14.377391 7.9601966e-07 0.59389204 10.499771 71.34295 0.0053856485 0.00038565483
6.2553544 14.22692 1.2705407 0.59901845 3.7222104 6.616576 0.0016862545 0.11339111

15 f4 [10, 64]
00000000: 4f14 14ba 597d 2635 7680 24bb b310 27bc
00000010: 8255 f837 432d c937 2d25 393a 4d11 8a36
00000020: 9e6f 11bd 6b40 1436 4fb9 4a3d 25f4 76ba
00000030: 6fa8 ed3b 31f2 c638 cbbf 723e 86e6 6a3b
00000040: 8369 4a39 163d b5b6 8df2 b639 b261 34ba
00000050: 110b 3b39 3e8a 8337 da03 9a3d 62b0 3038
00000060: 4956 fdba 0176 923a 56f1 76b9 c3fd d539
00000070: 5dda 1239 f08a 23b9 37a3 0338 1ebf 98b9
00000080: 09cd 65ba 0b2e c6b9 a171 93b9 0f42 0ab8
00000090: bad3 fb39 68ec 0ebe 3565 3bbb d0c6 8fbc
000000a0: e40c 2abb e091 9c39 beaf be3a 6435 a339
000000b0: 4762 093a 319b ee37 2471 31bd 4863 beb9
000000c0: d817 0238 b583 a23a d7c5 34b7 ba2e ec38
000000d0: 40bb 09bb 0f3d 0b39 e281 afba f9b0 e3b9
000000e0: 2d19 baba 7450 9c3c 65ee c63c 5aac f5b9
000000f0: dd89 82be cd6f 1c3d 275c 7838 4221 a9b9
00000100: 87f0 4c3b 331a 103a a13e 243b 37d7 9a3c
00000110: b672 6538 381a 5138 eda8 8639 109d 5c39
00000120: 5090 5d3d 6221 f037 9102 143d 507b 803b
00000130: d55e 87ba b17a 9ab8 abfe 02bd 7599 e13a
00000140: 6d4d 1b38 79bc 40b4 347c a436 beca 8939
00000150: 858f 94b9 ad64 44b9 01c9 2a3e 67dc 9937
00000160: a429 bbba d2df a3ba fd91 7837 ecc3 003a
00000170: 9d11 a0b8 9c54 6538 37fb 063a 65ae 5a39
00000180: 627d 3939 e8d4 71b9 821f 39bb 420c 46b7
00000190: f31b 1a3a 5e6a 093e 8689 1c3b 3fab 08b9
000001a0: 5b75 233a b594 1138 a17d 8ab9 0175 e0b9
000001b0: 12c7 85b9 1d10 6037 faff 25bd 298c 96b8
000001c0: b6c8 313a d769 8d3c e300 0d38 1b9c 1db9
000001d0: 83d0 46bc 177a 3939 6891 ae39 e834 9839
000001e0: cf58 10bb 7456 8dbb afdb 28be e344 8fb9
000001f0: 7816 f5bd 1c08 52bd f6d1 cf3a 27a7 b039
00000200: a49d 783d 6e29 493b 35ee d8be 842e 653d
00000210: 7d78 0c3f 996d 16ba 477a 133f 5f4e f8b9
00000220: 253a 2bbe 0c90 2f39 6834 37be 7d43 5bbc
00000230: cf6e e8bc 140e c73f ae6d 8abd c14a 783d
00000240: 92da 5c3f 8dc7 fcb8 e547 4b3c 5582 3abb
00000250: ae9c 183a 6337 483e 96a3 263e ba85 32b8
00000260: 0bd0 973b 7510 213f dcef 92ba 86f8 13be
00000270: 10a4 963a 552d 0936 95c0 e6c0 1d24 4abf
00000280: ddec 1bc1 ab7c edbd 77b9 37b9 48f5 6c3e
00000290: ff3b a4ba 01df f3bc bb12 91bd e9db 64be
000002a0: 1e77 69bd 8918 c03f 6c71 6d3f 6b7e bfbd
000002b0: 2e44 9dbf 4da0 a239 8c8e 11be 2894 c23b
000002c0: 1151 d83e 94ef 75be 651a 8339 e37f 7fbe
000002d0: fabe 66be 9ea5 bbc0 3dcd 123c a5fb 413b
000002e0: 1ac0 d7bf 084f 73be b39d 103e 2db9 383e
000002f0: db3f ccbd 6c5d 3dbe 8a05 a9bb 6fef cdbd
00000300: 55e7 1abd d4ad 2cbb 933d 2b3f 3c38 67bd
00000310: ff2c d8be 95f0 13b8 075e cc3e 3a5f 613d
00000320: 9b06 8cbe 6cad 4839 83e6 72be 39d4 0a3c
00000330: a0d6 1d3d 94a1 7c3a 0eff 66bc 4408 6e3b
00000340: 3178 eebc c5df 4d38 6101 e539 41b7 983b
00000350: 2f4d ecba 2591 093a bf9b 6c3c 6944 b13a
00000360: 555b e2bc 97d9 83bd e164 8e3a 790c 31b9
00000370: ba05 723d 6772 9a38 8fdc 0c3b 22d4 84be
00000380: 9c74 f13a 9ed6 0e3a 4bdb c43a e911 02bb
00000390: c85f 2a3d 275e 03bc 782d 1d3d 9d97 abbe
000003a0: 5403 ed40 a669 1f3a 2ae3 6c3d 19b2 533a
000003b0: 0903 9d3d 6bed 8938 a138 71be c81c 8abc
000003c0: 9996 f03c 3f84 c7be 8a40 ce38 bc7a 853a
000003d0: 571e abbe 1a3e b6ba 5cda d1bb 4606 d8ba
000003e0: 21bf c53b 8f74 c6be 805e 583c f4aa 5a3d
000003f0: b22f 3ebc 2f2b 86be a47f 8bbb f62b 2e3a
-0.0005648778 6.2022224e-07 -0.0025100983 -0.0101968525 2.9603721e-05 2.3982144e-05 0.00070627296 4.1147346e-06
-0.035506837 2.2091215e-06 0.04949313 -0.00094205356 0.007252745 9.4864874e-05 0.23705976 0.003584297
0.00019303527 -5.4013317e-06 0.0003489446 -0.0006881013 0.00017837832 1.5680791e-05 0.07520266 4.212594e-05
-0.0019328083 0.0011174084 -0.00023550293 0.00040815593 0.00014004992 -0.0001559665 3.138484e-05 -0.00029134093
-0.00087662094 -0.00037799808 -0.00028122685 -3.2963286e-05 0.000480322 -0.1395737 -0.002859426 -0.017550856
-0.0025947625 0.00029863324 0.0014548225 0.00031129562 0.000524078 2.8444078e-05 -0.04332079 -0.00036313594
3.101662e-05 0.0012398871 -1.0774899e-05 0.000112620604 -0.002101615 0.00013278819 -0.0013390149 -0.0004342867
-0.0014198177 0.019081332 0.024283597 -0.00046858453 -0.25495806 0.03819256 5.921363e-05 -0.0003225897
0.0031271295 0.0005497068 0.0025061744 0.01890145 5.4704687e-05 4.98539e-05 0.0002568433 0.00021039345
0.054092705 2.8625775e-05 0.03613526 0.00392095 -0.0010327945 -7.366145e-05 -0.03198115 0.0017211871
3.7026988e-05 -1.794996e-07 4.90204e-06 0.0002628173 -0.0002833569 -0.00018729521 0.1667824 1.8341654e-05
-0.0014279378 -0.0012502617 1.4815942e-05 0.0004912007 -7.632675e-05 5.4676653e-05 0.0005149128 0.00020855067
0.00017689684 -0.00023062865 -0.002824754 -1.1804574e-05 0.00058787985 0.13419482 0.0023885681 -0.00013033765
0.0006235444 3.470919e-05 -0.00026415012 -0.00042811784 -0.00025516056 1.3355192e-05 -0.04052732 -7.178664e-05
0.00067819224 0.017262382 3.3617845e-05 -0.0001503084 -0.012134674 0.00017688457 0.00033296202 0.00029031117
-0.002202559 -0.0043132845 -0.16490053 -0.0002732641 -0.11967176 -0.051277265 0.001585542 0.00033693874
0.060697213 0.003069486 -0.42369238 0.055952564 0.5487135 -0.0005738377 0.57608455 -0.00047360637
-0.16721399 0.00016742962 -0.17891085 -0.01338279 -0.02837315 1.5551171 -0.06759201 0.060618166
0.8627101 -0.000120534656 0.012407278 -0.0028459032 0.0005821687 0.19552378 0.1627334 -4.256305e-05
0.004632955 0.62915736 -0.00112104 -0.14450273 0.0011492986 2.0440978e-06 -7.2110085 -0.78961354
-9.745328 -0.11596044 -0.00017521331 0.23140442 -0.0012530087 -0.029769422 -0.07083651 -0.22349514
-0.056998365 1.5007488 0.92751193 -0.09350284 -1.2286432 0.0003101848 -0.14214534 0.0059380718
0.4224935 -0.24017173 0.00025005933 -0.24951129 -0.2253379 -5.863967 0.008960065 0.0029599455
-1.68555 -0.23760617 0.14122657 0.18039389 -0.09973117 -0.18492669 -0.005158131 -0.10055434
-0.03781827 -0.0026348727 0.6689083 -0.056450114 -0.4222183 -3.527159e-05 0.39915487 0.055022456
-0.2734879 0.00019138091 -0.23720746 0.008473449 0.03853476 0.0009637114 -0.014098896 0.0036320845
-0.029110046 4.908421e-05 0.0004367931 0.0046605174 -0.0018028374 0.00052477635 0.01444143 0.0013524416
-0.027631441 -0.06437986 0.0010863804 -0.00016884682 0.059087493 7.364601e-05 0.0021493768 -0.25943094
0.0018421593 0.00054488506 0.0015018968 -0.00198471 0.04159525 -0.008018053 0.03837344 -0.3351411
7.4066563 0.00060811115 0.057833828 0.000807555 0.076665945 6.5768916e-05 -0.23556758 -0.016859427
0.029368686 -0.38968083 9.834867e-05 0.0010183672 -0.33421585 -0.0013904006 -0.0064042043 -0.0016481362
0.006034747 -0.38760802 0.013206124 0.05338569 -0.011608051 -0.2620482 -0.0042571593 0.0006644124
